…
/opt/conda/lib/python3.7/site-packages/segmentation_models_pytorch/base/modules.py:116: UserWarning: Implicit dimension choice for softmax has been deprecated. Change the call to include dim=X as an argument.
  return self.activation(x)
=========================================================================================================
Layer (type:depth-idx)                                  Output Shape              Param #
=========================================================================================================
SegmentationModel                                       [16, 7, 320, 320]         --
├─UnetPlusPlus: 1-1                                     [16, 7, 320, 320]         --
│    └─RegNetEncoder: 2-1                               [16, 3, 320, 320]         --
│    │    └─ConvBnAct: 3-1                              [16, 32, 160, 160]        928
│    │    └─RegStage: 3-2                               [16, 224, 80, 80]         648,768
│    │    └─RegStage: 3-3                               [16, 448, 40, 40]         4,733,624
│    │    └─RegStage: 3-4                               [16, 896, 20, 20]         31,884,720
│    │    └─RegStage: 3-5                               [16, 2240, 10, 10]        12,313,504
│    └─UnetPlusPlusDecoder: 2-2                         [16, 16, 320, 320]        --
│    └─SegmentationHead: 2-3                            [16, 7, 320, 320]         --
│    │    └─Conv2d: 3-6                                 [16, 7, 320, 320]         1,015
│    │    └─Identity: 3-7                               [16, 7, 320, 320]         --
│    │    └─Activation: 3-8                             [16, 7, 320, 320]         --
├─DiceLoss: 1-2                                         --                        --
=========================================================================================================
Total params: 71,013,407
Trainable params: 71,013,407
Non-trainable params: 0
Total mult-adds (T): 1.29
=========================================================================================================
…
